…
:00,  1.08it/s]Evaluating on VQA val set: 100%|##########| 2008/2008 [31:00<00:00,  1.16it/s]Evaluating on VQA val set: 100%|##########| 2008/2008 [31:00<00:00,  1.08it/s]
11/19/2022 16:49:47 - INFO - train.train_vqa - Evaluation after epoch 1: 53.08
11/19/2022 16:49:47 - INFO - train.train_vqa - New best evaluation score: 53.08
11/19/2022 16:49:47 - INFO - __main__ - Best VQAv2 evaluation score = 53.08, after epoch 1
11/19/2022 16:49:47 - INFO - vilt - vilt encoder layer num is ModuleList(
  (0): ViltLayer(
    (attention): ViltAttention(
      (attention): ViltSelfAttention(
        (query): Linear(in_features=768, out_features=768, bias=True)
        (key): Linear(in_features=768, out_features=768, bias=True)
        (value): Linear(in_features=768, out_features=768, bias=True)
        (dropout): Dropout(p=0.0, inplace=False)
      )
      (output): ViltSelfOutput(
        (dense): Linear(in_features=768, out_features=768, bias=True)
        (dropout): Dropout(p=0.0, inplace=False)
      )
    )
    (intermediate): ViltIntermediate(
      (dense): Linear(in_features=768, out_features=3072, bias=True)
    )
    (output): ViltOutput(
      (dense): Linear(in_features=3072, out_features=768, bias=True)
      (dropout): Dropout(p=0.0, inplace=False)
    )
    (layernorm_before): LayerNorm((768,), eps=1e-12, elementwise_affine=True)
    (layernorm_after): LayerNorm((768,), eps=1e-12, elementwise_affine=True)
  )
  (1): ViltLayer(
    (attention): ViltAttention(
      (attention): ViltSelfAttention(
        (query): Linear(in_features=768, out_features=768, bias=True)
        (key): Linear(in_features=768, out_features=768, bias=True)
        (value): Linear(in_features=768, out_features=768, bias=True)
        (dropout): Dropout(p=0.0, inplace=False)
      )
      (output): ViltSelfOutput(
        (dense): Linear(in_features=768, out_features=768, bias=True)
        (dropout): Dropout(p=0.0, inplace=False)
      )
    )
    (intermediate): ViltIntermediate(
      (dense): Linear(in_features=768, out_features=3072, bias=True)
    )
    (output): ViltOutput(
      (dense): Linear(in_features=3072, out_features=768, bias=True)
      (dropout): Dropout(p=0.0, inplace=False)
    )
    (layernorm_before): LayerNorm((768,), eps=1e-12, elementwise_affine=True)
    (layernorm_after): LayerNorm((768,), eps=1e-12, elementwise_affine=True)
  )
  (2): ViltLayer(
    (attention): ViltAttention(
      (attention): ViltSelfAttention(
        (query): Linear(in_features=768, out_features=768, bias=True)
        (key): Linear(in_features=768, out_features=768, bias=True)
        (value): Linear(in_features=768, out_features=768, bias=True)
        (dropout): Dropout(p=0.0, inplace=False)
      )
      (output): ViltSelfOutput(
        (dense): Linear(in_features=768, out_features=768, bias=True)
        (dropout): Dropout(p=0.0, inplace=False)
      )
    )
    (intermediate): ViltIntermediate(
      (dense): Linear(in_features=768, out_features=3072, bias=True)
    )
    (output): ViltOutput(
      (dense): Linear(in_features=3072, out_features=768, bias=True)
      (dropout): Dropout(p=0.0, inplace=False)
    )
    (layernorm_before): LayerNorm((768,), eps=1e-12, elementwise_affine=True)
    (layernorm_after): LayerNorm((768,), eps=1e-12, elementwise_affine=True)
  )
  (3): ViltLayer(
    (attention): ViltAttention(
      (attention): ViltSelfAttention(
        (query): Linear(in_features=768, out_features=768, bias=True)
        (key): Linear(in_features=768, out_features=768, bias=True)
        (value): Linear(in_features=768, out_features=768, bias=True)
        (dropout): Dropout(p=0.0, inplace=False)
      )
      (output): ViltSelfOutput(
        (dense): Linear(in_features=768, out_features=768, bias=True)
        (dropout): Dropout(p=0.0, inplace=False)
      )
    )
    (intermediate): ViltIntermediate(
      (dense): Linear(in_features=768, out_features=3072, bias=True)
    )
    (output): ViltOutput(
      (dense): Linear(in_features=3072, out_features=768, bias=True)
      (dropout): Dropout(p=0.0, inplace=False)
    )
    (layernorm_before): LayerNorm((768,), eps=1e-12, elementwise_affine=True)
    (layernorm_after): LayerNorm((768,), eps=1e-12, elementwise_affine=True)
  )
  (4): ViltLayer(
    (attention): ViltAttention(
      (attention): ViltSelfAttention(
        (query): Linear(in_features=768, out_features=768, bias=True)
        (key): Linear(in_features=768, out_features=768, bias=True)
        (value): Linear(in_features=768, out_features=768, bias=True)
        (dropout): Dropout(p=0.0, inplace=False)
      )
      (output): ViltSelfOutput(
        (dense): Linear(in_features=768, out_features=768, bias=True)
        (dropout): Dropout(p=0.0, inplace=False)
      )
    )
    (intermediate): ViltIntermediate(
      (dense): Linear(in_features=768, out_features=3072, bias=True)
    )
    (output): ViltOutput(
      (dense): Linear(in_features=3072, out_features=768, bias=True)
      (dropout): Dropout(p=0.0, inplace=False)
    )
    (layernorm_before): LayerNorm((768,), eps=1e-12, elementwise_affine=True)
    (layernorm_after): LayerNorm((768,), eps=1e-12, elementwise_affine=True)
  )
  (5): ViltLayer(
    (attention): ViltAttention(
      (attention): ViltSelfAttention(
        (query): Linear(in_features=768, out_features=768, bias=True)
        (key): Linear(in_features=768, out_features=768, bias=True)
        (value): Linear(in_features=768, out_features=768, bias=True)
        (dropout): Dropout(p=0.0, inplace=False)
      )
      (output): ViltSelfOutput(
        (dense): Linear(in_features=768, out_features=768, bias=True)
        (dropout): Dropout(p=0.0, inplace=False)
      )
    )
    (intermediate): ViltIntermediate(
      (dense): Linear(in_features=768, out_features=3072, bias=True)
    )
    (output): ViltOutput(
      (dense): Linear(in_features=3072, out_features=768, bias=True)
      (dropout): Dropout(p=0.0, inplace=False)
    )
    (layernorm_before): LayerNorm((768,), eps=1e-12, elementwise_affine=True)
    (layernorm_after): LayerNorm((768,), eps=1e-12, elementwise_affine=True)
  )
  (6): ViltLayer(
    (attention): ViltAttention(
      (attention): ViltSelfAttention(
        (query): Linear(in_features=768, out_features=768, bias=True)
        (key): Linear(in_features=768, out_features=768, bias=True)
        (value): Linear(in_features=768, out_features=768, bias=True)
        (dropout): Dropout(p=0.0, inplace=False)
      )
      (output): ViltSelfOutput(
        (dense): Linear(in_features=768, out_features=768, bias=True)
        (dropout): Dropout(p=0.0, inplace=False)
      )
    )
    (intermediate): ViltIntermediate(
      (dense): Linear(in_features=768, out_features=3072, bias=True)
    )
    (output): ViltOutput(
      (dense): Linear(in_features=3072, out_features=768, bias=True)
      (dropout): Dropout(p=0.0, inplace=False)
    )
    (layernorm_before): LayerNorm((768,), eps=1e-12, elementwise_affine=True)
    (layernorm_after): LayerNorm((768,), eps=1e-12, elementwise_affine=True)
  )
  (7): ViltLayer(
    (attention): ViltAttention(
      (attention): ViltSelfAttention(
        (query): Linear(in_features=768, out_features=768, bias=True)
        (key): Linear(in_features=768, out_features=768, bias=True)
        (value): Linear(in_features=768, out_features=768, bias=True)
        (dropout): Dropout(p=0.0, inplace=False)
      )
      (output): ViltSelfOutput(
        (dense): Linear(in_features=768, out_features=768, bias=True)
        (dropout): Dropout(p=0.0, inplace=False)
      )
    )
    (intermediate): ViltIntermediate(
      (dense): Linear(in_features=768, out_features=3072, bias=True)
    )
    (output): ViltOutput(
      (dense): Linear(in_features=3072, out_features=768, bias=True)
      (dropout): Dropout(p=0.0, inplace=False)
    )
    (layernorm_before): LayerNorm((768,), eps=1e-12, elementwise_affine=True)
    (layernorm_after): LayerNorm((768,), eps=1e-12, elementwise_affine=True)
  )
  (8): ViltLayer(
    (attention): ViltAttention(
      (attention): ViltSelfAttention(
        (query): Linear(in_features=768, out_features=768, bias=True)
        (key): Linear(in_features=768, out_features=768, bias=True)
        (value): Linear(in_features=768, out_features=768, bias=True)
        (dropout): Dropout(p=0.0, inplace=False)
      )
      (output): ViltSelfOutput(
        (dense): Linear(in_features=768, out_features=768, bias=True)
        (dropout): Dropout(p=0.0, inplace=False)
      )
    )
    (intermediate): ViltIntermediate(
      (dense): Linear(in_features=768, out_features=3072, bias=True)
    )
    (output): ViltOutput(
      (dense): Linear(in_features=3072, out_features=768, bias=True)
      (dropout): Dropout(p=0.0, inplace=False)
    )
    (layernorm_before): LayerNorm((768,), eps=1e-12, elementwise_affine=True)
    (layernorm_after): LayerNorm((768,), eps=1e-12, elementwise_affine=True)
  )
  (9): ViltLayer(
    (attention): ViltAttention(
      (attention): ViltSelfAttention(
        (query): Linear(in_features=768, out_features=768, bias=True)
        (key): Linear(in_features=768, out_features=768, bias=True)
        (value): Linear(in_features=768, out_features=768, bias=True)
        (dropout): Dropout(p=0.0, inplace=False)
      )
      (output): ViltSelfOutput(
        (dense): Linear(in_features=768, out_features=768, bias=True)
        (dropout): Dropout(p=0.0, inplace=False)
      )
    )
    (intermediate): ViltIntermediate(
      (dense): Linear(in_features=768, out_features=3072, bias=True)
    )
    (output): ViltOutput(
      (dense): Linear(in_features=3072, out_features=768, bias=True)
      (dropout): Dropout(p=0.0, inplace=False)
    )
    (layernorm_before): LayerNorm((768,), eps=1e-12, elementwise_affine=True)
    (layernorm_after): LayerNorm((768,), eps=1e-12, elementwise_affine=True)
  )
  (10): ViltLayer(
    (attention): ViltAttention(
      (attention): ViltSelfAttention(
        (query): Linear(in_features=768, out_features=768, bias=True)
        (key): Linear(in_features=768, out_features=768, bias=True)
        (value): Linear(in_features=768, out_features=768, bias=True)
        (dropout): Dropout(p=0.0, inplace=False)
      )
      (output): ViltSelfOutput(
        (dense): Linear(in_features=768, out_features=768, bias=True)
        (dropout): Dropout(p=0.0, inplace=False)
      )
    )
    (intermediate): ViltIntermediate(
      (dense): Linear(in_features=768, out_features=3072, bias=True)
    )
    (output): ViltOutput(
      (dense): Linear(in_features=3072, out_features=768, bias=True)
      (dropout): Dropout(p=0.0, inplace=False)
    )
    (layernorm_before): LayerNorm((768,), eps=1e-12, elementwise_affine=True)
    (layernorm_after): LayerNorm((768,), eps=1e-12, elementwise_affine=True)
  )
  (11): ViltLayer(
    (attention): ViltAttention(
      (attention): ViltSelfAttention(
        (query): Linear(in_features=768, out_features=768, bias=True)
        (key): Linear(in_features=768, out_features=768, bias=True)
        (value): Linear(in_features=768, out_features=768, bias=True)
        (dropout): Dropout(p=0.0, inplace=False)
      )
      (output): ViltSelfOutput(
        (dense): Linear(in_features=768, out_features=768, bias=True)
        (dropout): Dropout(p=0.0, inplace=False)
      )
    )
    (intermediate): ViltIntermediate(
      (dense): Linear(in_features=768, out_features=3072, bias=True)
    )
    (output): ViltOutput(
      (dense): Linear(in_features=3072, out_features=768, bias=True)
      (dropout): Dropout(p=0.0, inplace=False)
    )
    (layernorm_before): LayerNorm((768,), eps=1e-12, elementwise_affine=True)
    (layernorm_after): LayerNorm((768,), eps=1e-12, elementwise_affine=True)
  )
)
11/19/2022 16:49:47 - INFO - __main__ - Saving best model and encoder checkpoint after VQAv2 training
11/19/2022 16:49:49 - INFO - __main__ - Saved checkpoint!
11/19/2022 16:49:49 - INFO - __main__ - Saved continual learning results so far!
11/19/2022 16:49:49 - INFO - __main__ - ----------------------------------------------------------------------------------------------------
…
